…
WARNING:tensorflow:Using a while_loop for converting Bitcast
WARNING:tensorflow:Using a while_loop for converting Bitcast
WARNING:tensorflow:Using a while_loop for converting StatelessRandomUniformV2
Using TensorFlow v2.9.1
Found 16420 files belonging to 4 classes.
Using 13136 files for training.
Found 16420 files belonging to 4 classes.
Using 3284 files for validation.
Model: "sequential_1"
_________________________________________________________________
 Layer (type)                Output Shape              Param #   
=================================================================
 sequential (Sequential)     (None, 800, 800, 3)       0         
                                                                 
 rescaling (Rescaling)       (None, 800, 800, 3)       0         
                                                                 
 conv2d (Conv2D)             (None, 800, 800, 32)      896       
                                                                 
 activation (Activation)     (None, 800, 800, 32)      0         
                                                                 
 conv2d_1 (Conv2D)           (None, 798, 798, 32)      9248      
                                                                 
 activation_1 (Activation)   (None, 798, 798, 32)      0         
                                                                 
 max_pooling2d (MaxPooling2D  (None, 399, 399, 32)     0         
 )                                                               
                                                                 
 dropout (Dropout)           (None, 399, 399, 32)      0         
                                                                 
 conv2d_2 (Conv2D)           (None, 399, 399, 64)      18496     
                                                                 
 activation_2 (Activation)   (None, 399, 399, 64)      0         
                                                                 
 conv2d_3 (Conv2D)           (None, 397, 397, 64)      36928     
                                                                 
 activation_3 (Activation)   (None, 397, 397, 64)      0         
                                                                 
 max_pooling2d_1 (MaxPooling  (None, 198, 198, 64)     0         
 2D)                                                             
                                                                 
 dropout_1 (Dropout)         (None, 198, 198, 64)      0         
                                                                 
 flatten (Flatten)           (None, 2509056)           0         
                                                                 
 dense (Dense)               (None, 192)               481738944 
                                                                 
 activation_4 (Activation)   (None, 192)               0         
                                                                 
 dropout_2 (Dropout)         (None, 192)               0         
                                                                 
 dense_1 (Dense)             (None, 4)                 772       
                                                                 
=================================================================
Total params: 481,805,284
Trainable params: 481,805,284
Non-trainable params: 0
_________________________________________________________________
2024-02-15 15:27:04.531760: W tensorflow/core/grappler/optimizers/data/auto_shard.cc:776] AUTO sharding policy will apply DATA sharding policy as it failed to apply FILE sharding policy because of the following reason: Found an unshardable source dataset: name: "TensorSliceDataset/_1"
…
